…
Unique labels ['normal' 'dos' 'r2l' 'probe' 'u2r']
Training dataset shape (125973, 122) (125973, 5)
Test dataset shape (22544, 122) (22544, 5)
Label encoder y shape (125973,) (22544,)
================================= End of preprocessing stage ================================


======================= Start of adversarial sample generation ==============================


_________________________________________________________________
Layer (type)                 Output Shape              Param #   
=================================================================
dense_1 (Dense)              (None, 256)               31488     
_________________________________________________________________
dropout_1 (Dropout)          (None, 256)               0         
_________________________________________________________________
dense_2 (Dense)              (None, 128)               32896     
_________________________________________________________________
dropout_2 (Dropout)          (None, 128)               0         
_________________________________________________________________
dense_3 (Dense)              (None, 64)                8256      
_________________________________________________________________
dropout_3 (Dropout)          (None, 64)                0         
_________________________________________________________________
dense_4 (Dense)              (None, 32)                2080      
_________________________________________________________________
dropout_4 (Dropout)          (None, 32)                0         
_________________________________________________________________
dense_5 (Dense)              (None, 5)                 165       
=================================================================
Total params: 74,885
Trainable params: 74,885
Non-trainable params: 0
_________________________________________________________________
2019-03-12 19:21:39.724467: I tensorflow/core/platform/cpu_feature_guard.cc:137] Your CPU supports instructions that this TensorFlow binary was not compiled to use: SSE4.1 SSE4.2 AVX AVX2 FMA
…
